…
n (MW)\")\nplt.title(f\"Energy Consumption for Electricity state 1st building\")\nplt.legend()\nplt.show()\n\n\n\n\n\n\n\n\n\n\n\n\n\n\n\n\nTest MSE: 5.135466575622559 , SMAPE 1.9296079874038696\ninference time is  93.09827733039856\n\n\n\n\n\n\n\n\n\n\n\n\n\n\nTest MSE: 3.5050137042999268 , SMAPE 1.9443151950836182\n\n\n\n\n\n\n\n\n\n\ntorch.save(net, \"saved_model_without_year.pth\")\n\n\nnettt = torch.load(\"saved_model_without_year.pth\")\n\n\nnettt\n\nCombinedModel(\n  (nbeats): NBEATS(\n    (trend_blocks): ModuleList(\n      (0-5): 6 x TrendBlock(\n        (fc): ModuleList(\n          (0): Linear(in_features=40, out_features=512, bias=True)\n          (1-7): 7 x Linear(in_features=512, out_features=512, bias=True)\n        )\n        (backcast_fc): Linear(in_features=512, out_features=40, bias=True)\n        (forecast_fc): Linear(in_features=512, out_features=1, bias=True)\n      )\n    )\n    (seasonality_blocks): ModuleList(\n      (0-5): 6 x SeasonalityBlock(\n        (fc): ModuleList(\n          (0): Linear(in_features=40, out_features=512, bias=True)\n          (1-7): 7 x Linear(in_features=512, out_features=512, bias=True)\n        )\n        (backcast_fc): Linear(in_features=512, out_features=40, bias=True)\n        (forecast_fc): Linear(in_features=512, out_features=1, bias=True)\n      )\n    )\n  )\n  (month_net): EmbeddingNetwork(\n    (embedding): Embedding(12, 10)\n  )\n  (day_net): EmbeddingNetwork(\n    (embedding): Embedding(31, 10)\n  )\n  (hour_net): EmbeddingNetwork(\n    (embedding): Embedding(24, 10)\n  )\n  (year_net): YearNetwork(\n    (hidden): Linear(in_features=1, out_features=25, bias=True)\n    (output): Linear(in_features=25, out_features=10, bias=True)\n  )\n  (final_layer): Sequential(\n    (0): Linear(in_features=31, out_features=256, bias=True)\n    (1): ReLU()\n    (2): Linear(in_features=256, out_features=1, bias=True)\n  )\n)"
  },
  {
    "objectID": "experiment.cluster.html",
    "href": "experiment.cluster.html",
    "title": "Clustering",
    "section": "",
    "text": "import pandas as pd\nimport numpy as np\nfrom sklearn.preprocessing import StandardScaler\nfrom sklearn.decomposition import PCA\nfrom sklearn.cluster import KMeans\nfrom sklearn.metrics import sil
…
# Length of input time series\noutput_size = 1  # Length of output time series (forecast)\nnum_blocks = 12\nnum_hidden = 512\nnum_layers = 8\nembedding_dim = 10\nfinal_hidden = 256\n\nnbits_params = {\n    'input_size': input_size,\n    'output_size': output_size,\n    'num_blocks': num_blocks,\n    'num_hidden': num_hidden,\n    'num_layers': num_layers\n}\n\n\nnet = create_model()\n\n\ntrained_model = torch.load('trained_model.pth')\n\n\ntrained_model\n\nCombinedModel(\n  (nbeats): NBEATS(\n    (trend_blocks): ModuleList(\n      (0-5): 6 x TrendBlock(\n        (fc): ModuleList(\n          (0): Linear(in_features=40, out_features=512, bias=True)\n          (1-7): 7 x Linear(in_features=512, out_features=512, bias=True)\n        )\n        (backcast_fc): Linear(in_features=512, out_features=40, bias=True)\n        (forecast_fc): Linear(in_features=512, out_features=1, bias=True)\n      )\n    )\n    (seasonality_blocks): ModuleList(\n      (0-5): 6 x SeasonalityBlock(\n        (fc): ModuleList(\n          (0): Linear(in_features=40, out_features=512, bias=True)\n          (1-7): 7 x Linear(in_features=512, out_features=512, bias=True)\n        )\n        (backcast_fc): Linear(in_features=512, out_features=40, bias=True)\n        (forecast_fc): Linear(in_features=512, out_features=1, bias=True)\n      )\n    )\n  )\n  (month_net): EmbeddingNetwork(\n    (embedding): Embedding(12, 10)\n  )\n  (day_net): EmbeddingNetwork(\n    (embedding): Embedding(31, 10)\n  )\n  (hour_net): EmbeddingNetwork(\n    (embedding): Embedding(24, 10)\n  )\n  (year_net): YearNetwork(\n    (hidden): Linear(in_features=1, out_features=25, bias=True)\n    (output): Linear(in_features=25, out_features=10, bias=True)\n  )\n  (final_layer): Sequential(\n    (0): Linear(in_features=31, out_features=256, bias=True)\n    (1): ReLU()\n    (2): Linear(in_features=256, out_features=1, bias=True)\n  )\n)\n\n\n\nlr = 0.0005\nn_epochs = 10\nwindow_size = 40\nchunk_size = 122880\nbatch_size = 1024*12*5\n\n\n# In[15]:\n\n\n# Assuming `train`, `test`, `sample` are pre-loaded DataFrames\ntrain_loaders = create_data_loaders(train, chunk_size, batch_size)\ntest_loaders = create_data_loaders(test, chunk_size, batch_size)\nsample_loaders = create_data_loaders(sample, 100, 1)\n\ndevice = \"cuda\"\nnet.to(device)\n\nCombinedModel(\n  (nbeats): NBEATS(\n    (trend_blocks): ModuleList(\n      (0-5): 6 x TrendBlock(\n        (fc): ModuleList(\n          (0): Linear(in_features=40, out_features=512, bias=True)\n          (1-7): 7 x Linear(in_features=512, out_features=512, bias=True)\n        )\n        (backcast_fc): Linear(in_features=512, out_features=40, bias=True)\n        (forecast_fc): Linear(in_features=512, out_features=1, bias=True)\n      )\n    )\n    (seasonality_blocks): ModuleList(\n      (0-5): 6 x SeasonalityBlock(\n        (fc): ModuleList(\n          (0): Linear(in_features=40, out_features=512, bias=True)\n          (1-7): 7 x Linear(in_features=512, out_features=512, bias=True)\n        )\n        (backcast_fc): Linear(in_features=512, out_features=40, bias=True)\n        (forecast_fc): Linear(in_features=512, out_features=1, bias=True)\n      )\n    )\n  )\n  (month_net): EmbeddingNetwork(\n    (embedding): Embedding(12, 10)\n  )\n  (day_net): EmbeddingNetwork(\n    (embedding): Embedding(31, 10)\n  )\n  (hour_net): EmbeddingNetwork(\n    (embedding): Embedding(24, 10)\n  )\n  (year_net): YearNetwork(\n    (hidden): Linear(in_features=1, out_features=25, bias=True)\n    (output): Linear(in_features=25, out_features=10, bias=True)\n  )\n  (final_layer): Sequential(\n    (0): Linear(in_features=31, out_features=256, bias=True)\n    (1): ReLU()\n    (2): Linear(in_features=256, out_features=1, bias=True)\n  )\n)\n\n\n\n*_, test_mse, test_smape = test_function(trained_model, test_loaders, None, None, torch.device(device), return_data=True)\n\n\n\n\n\n\n\nTest MSE: 1.037216067314148 , SMAPE 0.4622192978858948\n\n\n\ntest_mse\n\ntensor(1.0372, device='cuda:0')\n\n\n\ntest_smape\n\ntensor(0.4622, device='cuda:0')\n\n\n\nimport torch_pruning as tp\nfrom torch
…
ch_size = 5\nnum_features = 40\n\nfeatures = torch.randn(batch_size, num_features)\nmonth = torch.randint(0, 12, (batch_size, 1))      # Random months between 1 and 12\nday = torch.randint(0, 31, (batch_size, 1))        # Random days between 1 and 31\nhour = torch.randint(0, 24, (batch_size, 1))       # Random hours between 0 and 23\nyear = torch.randint(2019, 2021, (batch_size, 1)) \n\nexample_input = features, year, month, day, hour\n\n\ntrained_model\n\nCombinedModel(\n  (nbeats): NBEATS(\n    (trend_blocks): ModuleList(\n      (0-5): 6 x TrendBlock(\n        (fc): ModuleList(\n          (0): Linear(in_features=40, out_features=435, bias=True)\n          (1-7): 7 x Linear(in_features=435, out_features=435, bias=True)\n        )\n        (backcast_fc): Linear(in_features=435, out_features=40, bias=True)\n        (forecast_fc): Linear(in_features=435, out_features=1, bias=True)\n      )\n    )\n    (seasonality_blocks): ModuleList(\n      (0-5): 6 x SeasonalityBlock(\n        (fc): ModuleList(\n          (0): Linear(in_features=40, out_features=435, bias=True)\n          (1-7): 7 x Linear(in_features=435, out_features=435, bias=True)\n        )\n        (backcast_fc): Linear(in_features=435, out_features=40, bias=True)\n        (forecast_fc): Linear(in_features=435, out_features=1, bias=True)\n      )\n    )\n  )\n  (month_net): EmbeddingNetwork(\n    (embedding): Embedding(12, 10)\n  )\n  (day_net): EmbeddingNetwork(\n    (embedding): Embedding(31, 10)\n  )\n  (hour_net): EmbeddingNetwork(\n    (embedding): Embedding(24, 10)\n  )\n  (year_net): YearNetwork(\n    (hidden): Linear(in_features=1, out_features=25, bias=True)\n    (output): Linear(in_features=25, out_features=10, bias=True)\n  )\n  (final_layer): Sequential(\n    (0): Linear(in_features=31, out_features=256, bias=True)\n    (1): ReLU()\n    (2): Linear(in_features=256, out_features=1, bias=True)\n  )\n)\n\n\n\ntrained_model.to('cpu')(*example_input)\n\n\n---------------------------------------------------------------------------\nIndexError                                Traceback (most recent call last)\nCell In[22], line 1\n----&gt; 1 trained_model.to('cpu')(*example_input)\n\nFile ~/miniconda3/envs/dev/lib/python3.9/site-packages/torch/nn/mod
…
  2231     # Note [embedding_renorm set_grad_enabled]\n   2232     # XXX: equivalent to\n   2233     # with torch.no_grad():\n   2234     #   torch.embedding_renorm_\n   2235     # remove once script supports set_grad_enabled\n   2236     _no_grad_embedding_renorm_(weight, input, max_norm, norm_type)\n-&gt; 2237 return torch.embedding(weight, input, padding_idx, scale_grad_by_freq, sparse)\n\nIndexError: index out of range in self\n\n\n\n\ntrained_model\n\nCombinedModel(\n  (nbeats): NBEATS(\n    (trend_blocks): ModuleList(\n      (0-5): 6 x TrendBlock(\n        (fc): ModuleList(\n          (0): Linear(in_features=40, out_features=435, bias=True)\n          (1-7): 7 x Linear(in_features=435, out_features=435, bias=True)\n        )\n        (backcast_fc): Linear(in_features=435, out_features=40, bias=True)\n        (forecast_fc): Linear(in_features=435, out_features=1, bias=True)\n      )\n    )\n    (seasonality_blocks): ModuleList(\n      (0-5): 6 x SeasonalityBlock(\n        (fc): ModuleList(\n          (0): Linear(in_features=40, out_features=435, bias=True)\n          (1-7): 7 x Linear(in_features=435, out_features=435, bias=True)\n        )\n        (backcast_fc): Linear(in_features=435, out_features=40, bias=True)\n        (forecast_fc): Linear(in_features=435, out_features=1, bias=True)\n      )\n    )\n  )\n  (month_net): EmbeddingNetwork(\n    (embedding): Embedding(12, 10)\n  )\n  (day_net): EmbeddingNetwork(\n    (embedding): Embedding(31, 10)\n  )\n  (hour_net): EmbeddingNetwork(\n    (embedding): Embedding(24, 10)\n  )\n  (year_net): YearNetwork(\n    (hidden): Linear(in_features=1, out_features=25, bias=True)\n    (output): Linear(in_features=25, out_features=10, bias=True)\n  )\n  (final_layer): Sequential(\n    (0): Linear(in_features=31, out_features=256, bias=True)\n    (1): ReLU()\n    (2): Linear(in_features=256, out_features=1, bias=True)\n  )\n)"
  },
  {
    "objectID": "experiment.tahercluster.html",
    "href": "experiment.tahercluster.html",
    "title": "Taher Cluster",
    "section": "",
    "text": "import pandas as pd\nimport numpy as np\nfrom sklearn.preprocessing import StandardScaler\nfrom sklearn.decomposition import PCA\nfrom sklearn.cluster import KMeans\nfrom sklearn.metri
…
